mnist_generator.pth (torch, 458448 bytes, 4 tensors)

gen.0.weight f4 [128, 100]
00000000: 7e75 ba3d 18a3 913c a18c 013c 244e 363d
00000010: a113 933c 2f50 923c 887b 86bc fbb1 74bd
00000020: d664 bc3b c2bf d23d b475 733d c5ba 99bc
00000030: 77a9 98b8 6692 95bd 8ce0 913a 683f 4dbc
00000040: b7d1 623c fefc 8c3c b2b9 a23d 1e7d a0bc
00000050: a7d2 df3b d298 943d 0e7b 3c3d 529f cd3c
00000060: 9120 9b3d 0431 ab3d 7b82 db3c 60a9 d23d
00000070: 4d23 b6bd df03 8b3d f0ef a5bd ba7a 04bd
00000080: dafd 55bd 9465 483d 415e 913d d312 29bd
00000090: 8946 f53c 5fc6 88bd 3f52 68b9 3a7c 74bd
000000a0: 133e 93bd 74a4 61bd 5c45 6fbd a528 213d
000000b0: 3730 97bd 0a7d 46bd 02a1 1cbc 9f8f 3abb
000000c0: c75c 8bbd ff6e 6e3d 80f1 213d e138 66bd
000000d0: 0972 dfbc 27ba 4bbd 8812 d7bc 778c 5e3c
000000e0: 04d8 4abc 61e0 ef3d cabb a43c c31f 02bd
000000f0: de64 06bd ea94 903c 5591 793c 0f6d 633d
00000100: 25cb 34bd 0107 003d 6701 9bbc 467a 54bd
00000110: b66b 1cbd f317 95bd 5514 833d 25db 6a3d
00000120: 9db0 07bd ec55 07bc 818e 3cbd 2468 6e3d
00000130: c3ad 0c3d abf2 0cbb e8e9 5fbd dd70 703c
00000140: e28c 933d 551a a3bc 7468 223d 9603 a73c
00000150: 9c7d bf3d 10cd 2a3d e74c 90bd 2d7d f83c
00000160: 98b1 32bd 2bb9 4e3d e84e 4e3c 1257 3c3d
00000170: bfde 6fbd 37d3 693d 63f2 78bd 2052 debd
00000180: a5a2 49bd d3ee 73bc fd09 0bbc b123 8fbd
00000190: 24f9 723d a711 dcbc f4d5 21bc fef3 173d
000001a0: db03 38bd 4b3a 77bd 0618 c03c 17d7 3dbd
000001b0: 4d35 44bd f1f3 b23d 857b d1bd 2c97 4c3d
000001c0: f0d8 54bd 28ca 96bd dd92 bdbc 0e2f 403d
000001d0: 7eb4 563c 5a5a 863d 92ed 093d 6bb2 95bd
000001e0: 0a23 c33d c06f 673d 5435 38bc de67 053c
000001f0: d0af e0bc 9927 a2bd 6f60 833d b56e debc
00000200: 5bd6 41bd ba13 4f3d dc40 a43d 2398 30bc
00000210: 9d7a 803d cf71 df3d 4318 9bbd 6437 41bd
00000220: 8102 17bc 0c06 5cbd c1c1 49bd 9a15 38bd
00000230: 36a7 62bd 3090 ca3c 4092 ee3d ebcd e43c
00000240: 9cce c73d caa0 a0bc 2fa5 85bd b6ac a03d
00000250: 062c 1e3d 2378 b8bd e027 5d3c 5e12 76bd
00000260: 1064 e33c 97e2 bd3d 0252 adbd 8e7e 153d
00000270: e61c 98bd b0e1 863d a198 cfba 1921 02bd
00000280: d493 a53d a94b a13d 2214 4c3c 7712 8bbc
00000290: 16a3 43bd 6bb2 80bd 5f7d 6abd fc0d 8fbd
000002a0: 3935 a1bd d244 863d 0fe4 623d 4972 1e3d
000002b0: cf52 8bbd 8038 963d 2bab 70bc 5b29 b3bd
000002c0: 50d5 fa3c f865 70bd 5bb2 3cbd 2a39 59bc
000002d0: 6bfd b93d f429 b3bd 0756 593d 0b93 b6bb
000002e0: 5e91 773c d3bc 5ebc 267e 763d b38d 94bd
000002f0: e391 a83d f199 71bd 0df5 95bc f32a 2ebd
00000300: 490f 763c 45b1 58bb d1ea 70bd 722b 8fbd
00000310: 4210 a73d c9c0 743b 695e 51bd 43f9 adbd
00000320: 20e2 ce3a 1f42 78bd e27d 683d 390d 033d
00000330: c656 003e fa37 253d 17d2 c3bd 6ae4 c5bc
00000340: 3186 b1bd f8ad 6ebd 33f6 e7bb 4b7c 5d3d
00000350: 9dff e4bd 71c0 f53c 22ca e73c 4d48 c1bc
00000360: fc81 2bbd 464b 94bd 917e fcbd b60c 94bd
00000370: 8b31 39bd 2400 193e da95 41bd f3ae 29bc
00000380: 8958 8f3d e243 973d bf8a a1bd e791 ef3d
00000390: 6261 36bd d4cd b0bc e3cb e5bd 5b9b 9fbd
000003a0: 6b49 f8bb 0049 1bbe b9ad d33c 82ce e23d
000003b0: 9a3d 61bd f98c 5ebd 9db0 e3bd b544 01bd
000003c0: 0b40 65bd 0ec0 0e3d 045f 8d3d 7a8d 49bd
000003d0: 9b46 c53d 5056 703d ff28 0fbe a554 733d
000003e0: 5461 a33d d430 983d 0872 0abd bdee dfbd
000003f0: 58ec af3d d96f c2bc 9be3 a6bd 859e 9abd
0.09104441 0.017777964 0.007907064 0.044508114 0.017953696 0.0178605 -0.016416326 -0.059740048
0.0057493253 0.10290481 0.059438422 -0.018765816 -7.27949e-05 -0.07303314 0.0011129542 -0.012527324
0.013843945 0.01721048 0.07945575 -0.01959091 0.0068305316 0.07255711 0.04601579 0.025100384
0.07574571 0.08358958 0.026795616 0.10286212 -0.08893452 0.06787848 -0.08102405 -0.032343604
-0.052244045 0.048924997 0.07098056 -0.041277718 0.02994086 -0.06678461 -0.00022155883 -0.059688784
-0.07189574 -0.055088475 -0.058415756 0.039345402 -0.07382243 -0.04845909 -0.009559872 -0.0028466952
-0.06804805 0.058211323 0.039536953 -0.056206588 -0.027276056 -0.049738076 -0.026253954 0.013583294
-0.012380604 0.11712719 0.020109076 -0.03176857 -0.03281104 0.017649133 0.015232404 0.05552393
-0.044139046 0.03125668 -0.018921567 -0.05187442 -0.03818866 -0.072799586 0.064003624 0.0573379
-0.033127416 -0.008260231 -0.04603434 0.058204785 0.0343454 -0.0021506946 -0.05466643 0.014675346
0.07204606 -0.019910017 0.039650396 0.020387452 0.0935013 0.04169947 -0.07045918 0.030333126
-0.043626398 0.05046956 0.012592055 0.045981474 -0.058562037 0.057086196 -0.060778033 -0.10855508
-0.049227376 -0.014888483 -0.008486268 -0.069892295 0.05931963 -0.026863886 -0.009877671 0.037097923
-0.04492555 -0.060358327 0.023448955 -0.046347704 -0.047902394 0.087379344 -0.102286376 0.049948856
-0.0519647 -0.07362777 -0.023141319 0.046919875 0.013104556 0.06560202 0.03367383 -0.07309421
0.095281675 0.056503057 -0.011243183 0.00814244 -0.027427584 -0.07917709 0.064148776 -0.027152399
-0.047323566 0.050555922 0.080201834 -0.01077846 0.062733866 0.10910379 -0.07572987 -0.047171965
-0.009216906 -0.053716704 -0.049257044 -0.044942476 -0.055335246 0.024726957 0.11648989 0.02793022
0.097562045 -0.01960792 -0.06525647 0.07845442 0.038616203 -0.09007289 0.0134982765 -0.06007611
0.027757674 0.09271734 -0.084629074 0.036497645 -0.07427387 0.06586015 -0.0015838334 -0.031769846
0.080848366 0.07875759 0.012455972 -0.016976578 -0.047762953 -0.062840305 -0.05724847 -0.06985089
-0.078714795 0.06556095 0.055393275 0.03868321 -0.06802904 0.07334995 -0.014689247 -0.08748122
0.030619293 -0.058690995 -0.04606853 -0.013258258 0.09081539 -0.08748236 0.053060558 -0.005571728
0.015110342 -0.013594824 0.0601789 -0.072535895 0.08230951 -0.0589847 -0.018305326 -0.04252143
0.015018293 -0.0033064645 -0.05881769 -0.069907084 0.08157398 0.0037346354 -0.051115427 -0.084948085
0.0015783943 -0.060609933 0.056760676 0.031995032 0.12533101 0.040336587 -0.09561556 -0.024156768
-0.08668173 -0.05827138 -0.00707891 0.054073613 -0.11181567 0.02999899 0.028294627 -0.023594046
-0.04187201 -0.0724092 -0.12328828 -0.07228987 -0.045213263 0.1494146 -0.04726205 -0.010356653
0.069993086 0.073859945 -0.07887792 0.116977505 -0.044526465 -0.021582521 -0.11220529 -0.077933036
-0.0075771115 -0.15164566 0.025839673 0.110745445 -0.05499039 -0.05433366 -0.11117671 -0.031559665
-0.05596928 0.034851126 0.069028884 -0.04920719 0.096326075 0.058676064 -0.13980483 0.059406895
0.07977548 0.07431188 -0.033800155 -0.109342076 0.08590001 -0.023734974 -0.08148881 -0.075497665

gen.0.bias f4 [128]
00000000: 3860 72bd 13e5 15bd 4bdb b9bc 749b fdbd
00000010: 1aa8 a5bd d746 9c3d c193 af3d c619 083d
00000020: 469f 8abd b96d 0bba 5380 53bd 6fd1 ae3d
00000030: 221c 28bd 3cb7 e13d 4367 7a3d f55a 68bd
00000040: 84f5 3f3d 7ed8 33bc 44b8 5d3d 7c83 75bc
00000050: fd07 43bc d9fc 4cbd 8b43 8c3d 8924 323d
00000060: 84df be3c 1f63 e5bb 7f27 d93d bf16 4f3c
00000070: 1f44 8ebd a6f1 72bd 599d 893d 3032 9bbd
00000080: f5d2 55bb dcce 0bbe fef4 7ebc 779c 9dbd
00000090: cb20 18bc 5678 8ebc c8a6 19bd f686 b5bb
000000a0: 4b45 1b3d a03c aabc 74d5 e2bd 04e6 653c
000000b0: 0c83 533c 67b8 0a3e 68d7 1d3d 21ce d93d
000000c0: ee86 453c c938 dd3d 33cf 163e 7fb7 bd3d
000000d0: e6ee 82bb c663 e33d 3c0b 06be bccc 0d3d
000000e0: 6bf9 6dbd 49b7 633c eb16 8d3c 1ca3 48bc
000000f0: 1b37 323c 13fd 38bd d378 5ebc f89c c63c
00000100: 37a5 603d 62b0 5dbd 355d 5cbc edb7 a1bd
00000110: 48b7 95bc 0173 7fbd be5c 5dbb 96bf cbbc
00000120: a9e6 b0bd 7069 bbbd 3fd6 88bd 4c63 fabd
00000130: 617d 133d 04b0 9ebd 15c2 b2bd 645b a33b
00000140: 6966 7cbd c210 4bbb fbd0 c2bd d3e5 ccbd
00000150: ddb9 02bd 2715 d8bd 5ef9 3ebe 8d04 b73d
00000160: ce7d f3bd 224a 623d 99f9 cdbd ecb1 48bd
00000170: f408 0abe 6366 11be 3090 61bd 5346 2cbd
00000180: e586 f0bc d0b2 0c3e e81f 98bc 2269 31bc
00000190: 4eaf 58bd f8e3 dcbc c2da f8bb fefd 033e
000001a0: f046 1ebe 30cd b2bd 5997 c6bd 7de9 5e3d
000001b0: 97a0 9cbd c37c 243d 08b5 38bd 2511 3b3c
000001c0: 926d 28bb 9ab0 19bb 9e25 31bd de7b f53c
000001d0: dd3e 0fbe 9d3d a1bd 092f d6bd bb30 15bb
000001e0: 132b d93c cad9 5d3b 9426 18bc bdbc a0bd
000001f0: 70a6 593d d3d2 a43c bba0 573d 3ac4 183d
-0.059173793 -0.036595415 -0.022687575 -0.12383166 -0.080887035 0.07630699 0.08573104 0.033227704
-0.0676866 -0.0005318779 -0.05163605 0.0853604 -0.041042455 0.11021277 0.061133634 -0.05672737
0.046865 -0.010976909 0.054130808 -0.014984962 -0.01190376 -0.05004582 0.0684882 0.043491874
0.02329994 -0.0070003415 0.106032364 0.0126397 -0.06946587 -0.059312485 0.06719465 -0.07577932
-0.003262696 -0.1365313 -0.01556134 -0.07695859 -0.009285162 -0.017391365 -0.03751257 -0.0055397702
0.03790788 -0.020780861 -0.11075869 0.014031891 0.012909662 0.13546906 0.038535506 0.10635019
0.0120560955 0.108018465 0.14727478 0.09263515 -0.003995764 0.11103015 -0.13090223 0.034619078
-0.05809919 0.013898679 0.017222842 -0.01224592 0.010877396 -0.045163225 -0.013578611 0.02424477
0.05484506 -0.05412329 -0.013449957 -0.07896409 -0.018275872 -0.062365536 -0.0033777202 -0.024871629
-0.08637745 -0.0915097 -0.06681489 -0.122259706 0.036008243 -0.07748416 -0.087284245 0.00498526
-0.061621103 -0.003098533 -0.09512516 -0.10004773 -0.031915534 -0.105509095 -0.18649814 0.08936415
-0.1188923 0.05524648 -0.100573726 -0.048997805 -0.13479978 -0.14199214 -0.05506915 -0.042059254
-0.029361198 0.13740087 -0.018569902 -0.010828288 -0.05290156 -0.026964173 -0.0075944373 0.12889859
-0.15456748 -0.08730543 -0.09696836 0.05442189 -0.076478176 0.040158045 -0.04509452 0.011417662
-0.0025700075 -0.002345121 -0.043248765 0.029966291 -0.13988824 -0.0787308 -0.1045819 -0.0022764641
0.026509797 0.0033851736 -0.0092865415 -0.07848499 0.053137243 0.02012006 0.05264352 0.03729651

gen.2.weight f4 [784, 128]
00000000: f72b 1ebe 00f3 f5bd 1d47 23be 2a63 dcbd
00000010: 43d9 eabd 05bd 04be cb25 35be 79dd ebbd
00000020: ab11 36bd 28b7 f4bc 26bb 21be f856 23be
00000030: e9ee 2dbe 1899 eebd 137d 4bbd bf70 a9bd
00000040: ecd1 f53a bf48 b8bd ce4d 3fbd 5477 f9bd
00000050: 615b 10be 15c4 22be 79f6 5dbd 369b 8dbd
00000060: 98e7 13be af6a dcbd 7ded fcbd b75e a2bd
00000070: f46c 723c 4f3f 59be 484d 04bd 36a1 3cbe
00000080: 082c f0bd 2d5f 1ebe 1f3c 4abe de94 1cbe
00000090: 4165 2dbe 636f b2bd e11e 1bbd 1db2 83bd
000000a0: edcb 4dbd 1fda 16be 355d 9fbd e994 9ebd
000000b0: 1d93 23be fef2 39bd 45f0 b3bd 6e3e 23be
000000c0: 2959 31be f5b1 3cbe a4fb 53be d897 02be
000000d0: 8193 1bbd 4068 1cbe 99cc 08bd 7077 7dbd
000000e0: b75a 83bd 93b9 0cbe 1b8c a7bd 5e09 14be
000000f0: 5acf cbbd cc35 f0bd 0d37 25be 790c 91bd
00000100: bd80 6dbd 77d7 b0bd fdaa 23be 5e83 94bd
00000110: 1c53 dcbd e2e0 6abd 5ced a2bc f213 cbbd
00000120: 3cec b4bd f6a1 35bd 3c1f e7bd 16df 1ebe
00000130: f539 42be 9e3d 44be 810f 02be ac2f 273a
00000140: e8b8 14be 7715 50bd f7ee 72bd 537c 99bd
00000150: 2062 20be d926 a83d 80b6 c6bc 5046 84bd
00000160: 6bd8 d8bd dc52 f1bd f99c 20be 7ea6 2abe
00000170: 9c40 dbbd 62a7 0cbe b2f9 30be 01c2 12be
00000180: ad66 77bd 8d73 43bd a21e 34be 4384 30be
00000190: 3526 b6bc d7d5 cdbc cbe4 c4bd 6113 f1bd
000001a0: 499e c0bc 8954 5bbc 36e8 13be 275b 34bd
000001b0: b6bd 46bd d533 c3bd 3495 b0bc 104d 2bbe
000001c0: cd09 bbbd 8b2b 23be b711 23be 9446 74bd
000001d0: 9c61 7bbe 883d a8bd d3be 263d a9ca 1abe
000001e0: 31ff 9abd 5dbb 4dbe acd1 3abe eea0 76bd
000001f0: b0b9 28bd 9b68 a1bd 18e4 48be 1c09 dcbd
00000200: f445 32be 6988 34be 80ce 84bd 95f9 9fbd
00000210: 6124 38be ed83 a8bd 28a0 2bbe f441 dfbd
00000220: cebc 33bd 41f4 78bd fa99 2bbe 7240 e9bd
00000230: 2be0 14be 69a3 ffbd db94 16be 655a 4abe
00000240: 10e7 08be 6e4b 2fbd 2042 39be a5d9 47be
00000250: 6445 04be 742a 94bd b037 edbd 8b47 8abd
00000260: 3122 f3bd bbbc 8fbb dde0 17be 1c35 10be
00000270: 90ac d0bd 13c2 11be 6033 98bd c3b1 e2bd
00000280: 029b c9bd 663a 03be 718f ccbc 883a 2abe
00000290: 6616 5dbd 5612 41be 804c dfbd 99fd e8bd
000002a0: 8e4a 50bd 20e2 38be 9ee4 56bd a07a 8cbd
000002b0: 6e8d 0dbd 1ebf 0bbe d86a ddbd 3efc b6bd
000002c0: e398 d9bd 3633 b6bc ee49 40be 0a9d cdbc
000002d0: ea98 53bd 00db a6bd 34fc 10be a3a1 29be
000002e0: 874c cfbd 7bff 68bd 37d0 ccbc 674a 99bd
000002f0: 01e2 b7bd b8bb 29be 2e0d 22be d3f9 08be
00000300: 7e2a 3cbe 0ecb 24be 29a8 22be 4998 99bd
00000310: 537d 38be b2a9 fbbd 066b a5bd 6b4a 46bd
00000320: 4f73 cdbd 30db b6bd 7622 fcbc 7909 9dbd
00000330: 2e79 4abd 1c20 cbbd 088d f3bd cf2f 44be
00000340: 6c44 3ebe 2ec1 2ebd dcdb 9fbd 5299 c6bd
00000350: ffa3 a5bc 8761 2cbe 4d1a 25be 5b51 2dbe
00000360: 5008 49be 0e70 0abd 8180 35be 6a11 bbbd
00000370: 7546 2fbe f26a 23be 302c cfbd f8da 24be
00000380: 89a6 f3bd 17ae 2dbd 5d5b b4bd 95d9 44bd
00000390: 460e b6bd 8902 0fbe 8065 3bbe 26d0 07be
000003a0: 7e09 bcbc 3f57 1bbe 4e3b 11be 46d3 2bbe
000003b0: 8a4e b3bd 57ae 37bc 39d8 40be 76f1 00be
000003c0: 18af 06be f068 e3bd 3da6 35be db70 cdbd
000003d0: 7d62 b7bd 9be3 e3bd c302 0bbd 5ad6 1abe
000003e0: e2f7 3fbe f8ea d7bc 906b 55be 3712 12be
000003f0: a695 47be b0ae 41bd a810 0dbe b068 f4bc
-0.15446459 -0.12009239 -0.15945096 -0.107611015 -0.11467221 -0.1296273 -0.17690198 -0.11516852
-0.044450443 -0.029872492 -0.15794048 -0.15951145 -0.16985668 -0.11650294 -0.049679827 -0.08273458
0.0018754578 -0.0899825 -0.04670506 -0.12180963 -0.14097358 -0.15895112 -0.054190133 -0.0691437
-0.14443815 -0.10762536 -0.12349985 -0.07928222 0.014796484 -0.21215557 -0.032300264 -0.18420872
-0.11727148 -0.15465994 -0.19749497 -0.15291163 -0.16933157 -0.087126516 -0.037871245 -0.06430457
-0.050243307 -0.14731644 -0.0778145 -0.07743246 -0.15974088 -0.04539775 -0.08786062 -0.15941784
-0.17319168 -0.1842726 -0.20701462 -0.12753236 -0.037982468 -0.15274143 -0.033398245 -0.061881483
-0.06413787 -0.13742666 -0.0818102 -0.14456698 -0.099516585 -0.11729011 -0.16134281 -0.07082457
-0.057984103 -0.08634847 -0.15983196 -0.07251619 -0.10758039 -0.05734337 -0.019888572 -0.09915914
-0.08834121 -0.04434391 -0.11285254 -0.15514788 -0.18967421 -0.1916413 -0.12701227 0.0006377648
-0.14523661 -0.05080172 -0.059309926 -0.07494416 -0.15662432 0.082105346 -0.024256945 -0.064587235
-0.105881535 -0.11783382 -0.1568488 -0.16665074 -0.10705683 -0.13735726 -0.17282751 -0.14331819
-0.060400654 -0.04771762 -0.1758981 -0.17237954 -0.022235015 -0.02512638 -0.09613951 -0.11771274
-0.023512976 -0.013386854 -0.1444405 -0.044032242 -0.048520766 -0.095313706 -0.02155552 -0.16728616
-0.09132729 -0.15934579 -0.15924726 -0.05963762 -0.24548954 -0.08214861 0.040709328 -0.15116371
-0.07568205 -0.20091005 -0.18244046 -0.06021207 -0.04119271 -0.0788128 -0.19618261 -0.10743925
-0.17409497 -0.17630161 -0.06484699 -0.07811276 -0.17982627 -0.08228288 -0.16760314 -0.109012514
-0.04388123 -0.060779814 -0.16757956 -0.11389245 -0.14538638 -0.1248234 -0.14705221 -0.19761045
-0.13369393 -0.042796545 -0.18091631 -0.19516619 -0.12917095 -0.0723466 -0.11582887 -0.06751927
-0.11871756 -0.004386512 -0.14831872 -0.1408276 -0.10189164 -0.1423419 -0.07431674 -0.110690616
-0.098440185 -0.12815246 -0.024970742 -0.1662389 -0.05397644 -0.18854651 -0.10903263 -0.11376495
-0.05085235 -0.1805501 -0.05246412 -0.06859326 -0.034558706 -0.13647124 -0.108113945 -0.0893483
-0.10624864 -0.022241216 -0.18778202 -0.025099296 -0.051659502 -0.0814724 -0.14158708 -0.16565566
-0.10122018 -0.05688427 -0.025001628 -0.07484894 -0.08978654 -0.16575515 -0.1582534 -0.1337655
-0.18375584 -0.16093084 -0.1588446 -0.07499749 -0.18016557 -0.12288226 -0.08077054 -0.048410814
-0.10031759 -0.089285254 -0.030778151 -0.076678224 -0.049431972 -0.09918234 -0.11892134 -0.19158863
-0.18580788 -0.0426647 -0.07805607 -0.09697212 -0.020219801 -0.16834079 -0.16123314 -0.16925566
-0.19632077 -0.03379827 -0.17724802 -0.09134181 -0.17116721 -0.15958765 -0.1011585 -0.16099155
-0.118969984 -0.042402353 -0.08806489 -0.048059065 -0.08889441 -0.13965811 -0.18300438 -0.13262996
-0.022953745 -0.1517 -0.14182779 -0.16779813 -0.087552145 -0.011210999 -0.18832482 -0.1259211
-0.1315273 -0.111039996 -0.17739196 -0.10031291 -0.08954332 -0.11127397 -0.03393818 -0.15120831
-0.18746904 -0.026357159 -0.20841813 -0.14264761 -0.1949068 -0.047285736 -0.13775885 -0.029835075

gen.2.bias f4 [784]
00000000: 1d22 4bbe 7873 fcbd 5bc6 d7bd 7fa7 78bd
00000010: f15d 00be 5b50 0fbe 58b0 98bd 9f8a a5bd
00000020: 8fd5 29be b1c3 d2bc d281 94bd d55f 12be
00000030: a7cc dabd c3e8 02be 006a 1ebe 1ded 17be
00000040: 8fe2 88bd 56c8 f1bd eb4a 06be 0439 cebd
00000050: 02ac 85bd 1f39 c3bd 7097 f4bd 9d7c 1cbe
00000060: 50d9 b4bd 4dab 5abe c038 79bd a53c 14be
00000070: 14c9 babd e612 28bd 69ad 4abe 6232 90bd
00000080: d671 65bd 8ed2 dcbd 959d 3cbe 2938 b6bd
00000090: 25ce 26be 0ec1 edbd ebe3 05bd 9192 b0bd
000000a0: e8fd 31be 776f 2fbe b5e4 aabd 382c 08be
000000b0: 126f 99bd 2af2 b0bd 5c00 22be e65b 68bd
000000c0: 30d2 43be 271c e0bd b2cf 22be 0c5b 34be
000000d0: bec0 17bd e0f3 77bd b8df 04be b222 6ebd
000000e0: abe0 0bbe cdd7 d3bd 25f0 f8bd bb26 e1bd
000000f0: edee 3abd 24db 93bd d0d2 9fbd 9ed9 bfbd
00000100: deed 80bd 3bef 2fbe 9588 d1bd f220 3abe
00000110: d216 24bd 452d 33bd 8dc9 38be 3733 2abe
00000120: 8c38 d9bd 1f64 c1bd fec3 74bd 43ef e0bd
00000130: f6c8 9bbc 7b84 fcbd e0a1 26be d241 13be
00000140: 3c16 33be 15b8 49be f877 7dbd 47da e7bd
00000150: 5ca3 27be 40a4 33be a749 4dbe a7a6 6dbd
00000160: c09d acbc 0b7f 5cbe 45c2 14be d4da 3dbe
00000170: 2f73 fdbd 5267 33bd fc3a 9cbd 124e febd
00000180: 1037 8fbd ddc5 25be fa23 86bd 0108 9fbc
00000190: ce17 08be 8c5d 2abd 0bf5 90bc d264 0ebe
000001a0: 3934 fabd 1af0 04be 9bad a8bd 2e0b e9bd
000001b0: 0eae d0bd 4e95 aabd 1583 a4bd a2fa 20be
000001c0: f0a6 c4bd cce2 f8bd f69d 08be 5fdc c3bd
000001d0: e3ff 46be ea86 41be 4c2a 39bd 0809 d9bd
000001e0: 33fe 16be 4d7d 12be 5a3f 2abe e6a0 39bd
000001f0: ba0f 03be 9026 bbbc f3a3 e6bc 68c6 05be
00000200: e698 283d 94ae 03bd 4f4b a3bd 6af6 573a
00000210: 5879 e8bd a7b9 bcbd 6bdf ebbd bba8 c3bd
00000220: d820 59bd 1a77 5fbd de09 a6bd 090e 2fbe
00000230: 49d3 cfbd ede9 14be e7ec fdbd b508 92bd
00000240: 63d9 4bbc 925e 86bd c791 0dbe f420 163a
00000250: a85b e2bc ed79 09be 7687 c8bd 6acb 5cbc
00000260: 0156 34bd f2b6 86bd ca25 ffbc b656 5fbd
00000270: 1776 a0bd 6717 77bc 21f3 6fbd 674d f3bd
00000280: 2c0c 01be ae34 9dbd c208 3bbd 237a 13be
00000290: 7ce8 30be 20ef c3bd 1dd7 48be 38d9 d4bd
000002a0: d5f6 c2bd e39c 11be 7cd0 5cbd 6c5c 48be
000002b0: 33d6 0dbd d7cb 2fbd 5177 fdbd b090 95bd
000002c0: fc6e 9bbd 3f38 8ebd 602c 03be 3fb4 133d
000002d0: 5af8 d93c bdd1 79bd 96a2 52bd a52a 303d
000002e0: ffca a5bd 080b 94bc 8c4c 903d 6121 07be
000002f0: 870e 9dbd 7f29 9fbd 2584 2abd bd8c febd
00000300: b4e9 ddbd 4450 70bd 406f 2ebe 7696 05be
00000310: 68c6 07be 05a4 c8bd fcae 0cbe d223 27be
00000320: 8ac8 21be e42d 65bd ca2f 15bd 22d1 f7bd
00000330: 570d aebd f250 d6bd 9354 a1bd edcb 693d
00000340: 5c69 98bd f597 a63d a491 e0bc 2003 3f3d
00000350: d692 cbba b3c0 8fbd b729 9dbd 52cf 633d
00000360: d0e7 d33c 4b33 0b3d 08e4 c13c 32e7 79bd
00000370: d707 a4bd 2cb6 b3bd 355c 41be cd52 e7bd
00000380: 9744 05be 125a 9dbd a664 efbd 7cca d0bd
00000390: 5ec0 78bd 10d9 89bd 6801 58bd 5581 12ba
000003a0: cecd acbd 4532 8dbd 9b1d babc 9d85 9cbd
000003b0: 6adf 473d e9e4 613d 1821 c63c 192d 333d
000003c0: e63c edbc 90ad 3b3c 2727 57bd f5c2 10bd
000003d0: bb33 93bd 2f97 79bd ea3b edbd 1dc1 8abd
000003e0: 26e4 06be 88fd 11be 8d13 acbb 9098 45be
000003f0: 8cd7 35bd 4d6d 23be ba33 f9bd 3734 0fbd
-0.19837232 -0.123267114 -0.1053588 -0.06070661 -0.12535836 -0.13995497 -0.0745551 -0.080830805
-0.16585372 -0.025728079 -0.07251324 -0.1429437 -0.106835656 -0.12784104 -0.15470123 -0.14836545
-0.066838376 -0.11805789 -0.13114516 -0.100694686 -0.065269485 -0.09532379 -0.11942947 -0.15281911
-0.088305116 -0.21354409 -0.060845137 -0.14476259 -0.09120384 -0.041033648 -0.19792713 -0.0704086
-0.056016766 -0.107823476 -0.18419488 -0.088974304 -0.16289575 -0.11609088 -0.032688063 -0.08621705
-0.17382014 -0.17132364 -0.08344404 -0.13298118 -0.07491888 -0.08639939 -0.1582045 -0.056728266
-0.19123149 -0.1094287 -0.15899542 -0.17612857 -0.037049048 -0.06053531 -0.12975967 -0.058138557
-0.13659923 -0.10343895 -0.12155179 -0.109937154 -0.045638014 -0.07219532 -0.07803881 -0.09367679
-0.062953696 -0.17181103 -0.10231129 -0.1817663 -0.040060826 -0.043744344 -0.18045636 -0.166211
-0.106064886 -0.09442925 -0.059757225 -0.109831356 -0.019016724 -0.12329956 -0.16272688 -0.14380577
-0.1748895 -0.19699128 -0.06188199 -0.1132093 -0.1637091 -0.17543125 -0.20047627 -0.05802026
-0.021071315 -0.21532838 -0.14527233 -0.18540508 -0.12375485 -0.043799706 -0.07628438 -0.124172345
-0.06992924 -0.1618876 -0.06549831 -0.019412996 -0.13290331 -0.04159312 -0.01769497 -0.13905647
-0.12216992 -0.12982216 -0.082362376 -0.113790855 -0.10189448 -0.08329259 -0.080328144 -0.15720609
-0.09602153 -0.12152633 -0.13341507 -0.09563517 -0.1943355 -0.18899122 -0.045206353 -0.10597426
-0.14745407 -0.14305611 -0.16625729 -0.04531946 -0.12798968 -0.022845536 -0.028154349 -0.13063967
0.04116144 -0.032148913 -0.07973348 0.00082383177 -0.113512695 -0.09215098 -0.11517223 -0.09553667
-0.053009838 -0.054556943 -0.08107351 -0.17095198 -0.10147721 -0.1454236 -0.12398701 -0.07130567
-0.012441966 -0.065610066 -0.13825141 0.00057269563 -0.027631596 -0.13425417 -0.09791462 -0.013476232
-0.044027332 -0.06577863 -0.031145949 -0.054526053 -0.07835024 -0.015081263 -0.058581475 -0.11879998
-0.126023 -0.076760635 -0.04566265 -0.1440206 -0.17276186 -0.09567094 -0.19613309 -0.10392994
-0.09519736 -0.14220004 -0.053909764 -0.19566506 -0.034628104 -0.042919006 -0.123762734 -0.073029876
-0.07589528 -0.06944322 -0.12809896 0.036060568 0.026607681 -0.060991038 -0.051424585 0.04300942
-0.08095359 -0.018071666 0.0704585 -0.13196327 -0.076687865 -0.077715866 -0.04162993 -0.124291874
-0.10835591 -0.058670297 -0.17034626 -0.13045678 -0.1325928 -0.09796909 -0.13738626 -0.16322258
-0.15799156 -0.055951968 -0.03642253 -0.12100436 -0.08498638 -0.10464658 -0.078774594 0.057079244
-0.07441971 0.08134452 -0.027413197 0.04663384 -0.0015531431 -0.07019176 -0.07673972 0.055617638
0.025867373 0.033984464 0.023668304 -0.0610115 -0.08009308 -0.08774981 -0.1888283 -0.1129509
-0.13014446 -0.07683195 -0.11689119 -0.10194871 -0.06073033 -0.067308545 -0.052735716 -0.000558873
-0.08437692 -0.06894354 -0.022719195 -0.07642672 0.04879705 0.055149946 0.024185702 0.04374418
-0.028959703 0.011454955 -0.052527573 -0.035342176 -0.07187601 -0.060935196 -0.11583693 -0.06775115
-0.13172969 -0.14256871 -0.005251354 -0.19296479 -0.044395015 -0.15959664 -0.12168069 -0.034961905
